…
{'all': array([1., 1., 1., ..., 1., 1., 1.]), 'protein_v3': array([0, 0, 0, ..., 1, 1, 1]), 'pure_v1': array([1, 1, 1, ..., 0, 0, 0]), 'pure_v1_overall_train': array([ True, False,  True, ..., False, False, False]), 'pure_v1_overall_test': array([False,  True, False, ..., False, False, False]), 'protein_v3_overall_train': array([False, False, False, ...,  True,  True,  True]), 'protein_v3_overall_test': array([False, False, False, ..., False, False, False]), 'merged_overall_train': array([ True, False,  True, ...,  True,  True,  True]), 'merged_overall_test': array([False,  True, False, ..., False, False, False])}
Model built:
ModuleDict(
  (decoder): FCDecoder(
    (model_list): ModuleList(
      (0): Linear(in_features=4, out_features=50, bias=True)
      (1): CELU(alpha=1.0)
      (2): Linear(in_features=50, out_features=50, bias=True)
      (3): CELU(alpha=1.0)
      (4): Linear(in_features=50, out_features=19705, bias=True)
    )
  )
  (main_latent_compressor): FCCompressor(
    (model_list): ModuleList(
      (0): Linear(in_features=50, out_features=2, bias=True)
    )
    (model): Sequential(
      (0): ModuleList(
        (0): Linear(in_features=50, out_features=2, bias=True)
      )
    )
  )
  (pheno_latent_compressors): ModuleDict(
    (data_key): FCCompressor(
      (model_list): ModuleList(
        (0): Linear(in_features=50, out_features=2, bias=True)
      )
      (model): Sequential(
        (0): ModuleList(
          (0): Linear(in_features=50, out_features=2, bias=True)
        )
      )
    )
  )
  (pheno_models): ModuleDict(
    (data_key): LinClassifier(
      (model_list): ModuleList(
        (0): Linear(in_features=2, out_features=11, bias=True)
        (1): LogSoftmax()
      )
      (model): Sequential(
        (0): ModuleList(
          (0): Linear(in_features=2, out_features=11, bias=True)
          (1): LogSoftmax()
        )
      )
    )
  )
  (pre_encoder): FCPreEncoder(
    (model_list): ModuleList(
      (0): Linear(in_features=19705, out_features=50, bias=True)
      (1): CELU(alpha=1.0)
      (2): Linear(in_features=50, out_features=50, bias=True)
      (3): CELU(alpha=1.0)
    )
  )
  (signature_latent_compressors): ModuleDict()
  (signature_regressors): ModuleDict()
)
===========================
Extractor controller
{'data_key': {'pheno_df_key': 'data_key', 'type': 'categorical', 'order': ['CD14+_Monocytes', 'CD19+_B_Cells', 'CD34+_Cells', 'CD4+_CD25+_Regulatory_T_Cells', 'CD4+_CD45RA+_CD25-_Nai
…
