…
Reading phenotype metadata json from: ./runs/EX07_07/pheno_meta.json
==========================
Configuration integrity pre-check ok: True
==========================
Splits:
{'all': array([ True,  True,  True, ...,  True,  True,  True]), 'overall_train': array([ True,  True, False, ...,  True,  True,  True]), 'overall_test': array([False, False,  True, ..., False, False, False]), 'pheno_data_key_train': array([False, False, False, ..., False, False, False]), 'pheno_data_key_test': array([ True,  True, False, ...,  True,  True,  True])}
Model built:
ModuleDict(
  (decoder): FCDecoder(
    (model_list): ModuleList(
      (0): Linear(in_features=3, out_features=50, bias=True)
      (1): CELU(alpha=1.0)
      (2): Linear(in_features=50, out_features=50, bias=True)
      (3): CELU(alpha=1.0)
      (4): Linear(in_features=50, out_features=19705, bias=True)
    )
  )
  (main_latent_compressor): FCCompressor(
    (model_list): ModuleList(
      (0): Linear(in_features=50, out_features=2, bias=True)
    )
    (model): Sequential(
      (0): ModuleList(
        (0): Linear(in_features=50, out_features=2, bias=True)
      )
    )
  )
  (pheno_latent_compressors): ModuleDict(
    (data_key): FCCompressor(
      (model_list): ModuleList(
        (0): Linear(in_features=50, out_features=1, bias=True)
      )
      (model): Sequential(
        (0): ModuleList(
          (0): Linear(in_features=50, out_features=1, bias=True)
        )
      )
    )
  )
  (pheno_models): ModuleDict(
    (data_key): LinClassifier(
      (model_list): ModuleList(
        (0): Linear(in_features=1, out_features=10, bias=True)
        (1): LogSoftmax()
      )
      (model): Sequential(
        (0): ModuleList(
          (0): Linear(in_features=1, out_features=10, bias=True)
          (1): LogSoftmax()
        )
      )
    )
  )
  (pre_encoder): FCPreEncoder(
    (model_list): ModuleList(
      (0): Linear(in_features=19705, out_features=50, bias=True)
      (1): CELU(alpha=1.0)
      (2): Linear(in_features=50, out_features=50, bias=True)
      (3): CELU(alpha=1.0)
    )
  )
  (signature_latent_compressors): ModuleDict()
  (signature_regressors): ModuleDict()
)
===========================
Extractor controller
{'data_key': {'pheno_df_key': 'data_key', 'type': 'categorical', 'order': ['CD14+_Monocytes', 'CD19+_B_Cells', 'CD34+_Cells', 'CD4+_CD25+_Regulatory_T_Cells', 'CD4+_CD45RA+_CD25-_Nai
…
