…
False, False]), 'protein_v3_overall_train': array([False, False, False, ..., False, False, False]), 'protein_v3_overall_test': array([False, False, False, ..., False, False, False]), 'targeted_v31_overall_train': array([False, False, False, ..., False, False, False]), 'targeted_v31_overall_test': array([False, False, False, ..., False, False, False]), 'merged_overall_train': array([ True,  True,  True, ...,  True,  True,  True]), 'merged_overall_test': array([False, False, False, ..., False, False, False])}
Model built:
ModuleDict(
  (decoder): FCDecoder(
    (model_list): ModuleList(
      (0): Linear(in_features=7, out_features=50, bias=True)
      (1): CELU(alpha=1.0)
      (2): Linear(in_features=50, out_features=50, bias=True)
      (3): CELU(alpha=1.0)
      (4): Linear(in_features=50, out_features=1021, bias=True)
    )
  )
  (main_latent_compressor): FCCompressor(
    (model_list): ModuleList(
      (0): Linear(in_features=50, out_features=2, bias=True)
    )
    (model): Sequential(
      (0): ModuleList(
        (0): Linear(in_features=50, out_features=2, bias=True)
      )
    )
  )
  (pheno_latent_compressors): ModuleDict(
    (data_key): FCCompressor(
      (model_list): ModuleList(
        (0): Linear(in_features=50, out_features=2, bias=True)
      )
      (model): Sequential(
        (0): ModuleList(
          (0): Linear(in_features=50, out_features=2, bias=True)
        )
      )
    )
    (protein_markers): FCCompressor(
      (model_list): ModuleList(
        (0): Linear(in_features=50, out_features=2, bias=True)
      )
      (model): Sequential(
        (0): ModuleList(
          (0): Linear(in_features=50, out_features=2, bias=True)
        )
      )
    )
    (source): FCCompressor(
      (model_list): ModuleList(
        (0): Linear(in_features=50, out_features=1, bias=True)
      )
      (model): Sequential(
        (0): ModuleList(
          (0): Linear(in_features=50, out_features=1, bias=True)
        )
      )
    )
  )
  (pheno_models): ModuleDict(
    (data_key): LinClassifier(
      (model_list): ModuleList(
        (0): Linear(in_features=2, out_features=12, bias=True)
        (1): LogSoftmax()
      )
      (model): Sequential(
        (0): ModuleList(
          (0): Linear(in_features=2, out_features=12, bias=True)
          (1): LogSoftmax()
        )
      )
    )
    (protein_markers): FCRegressor(
      (model_list): ModuleList(
        (0): Linear(in_features=2, out_features=5, bias=True)
        (1): CELU(alpha=1.0)
        (2): Linear(in_features=5, out_features=5, bias=True)
        (3): CELU(alpha=1.0)
        (4): Linear(in_features=5, out_features=17, bias=True)
      )
      (model): Sequential(
        (0): ModuleList(
          (0): Linear(in_features=2, out_features=5, bias=True)
          (1): CELU(alpha=1.0)
          (2): Linear(in_features=5, out_features=5, bias=True)
          (3): CELU(alpha=1.0)
          (4): Linear(in_features=5, out_features=17, bias=True)
        )
      )
    )
    (source): LinClassifier(
      (model_list): ModuleList(
        (0): Linear(in_features=1, out_features=3, bias=True)
        (1): LogSoftmax()
      )
      (model): Sequential(
        (0): ModuleList(
          (0): Linear(in_features=1, out_features=3, bias=True)
          (1): LogSoftmax()
        )
      )
    )
  )
  (pre_encoder): FCPreEncoder(
    (model_list): ModuleList(
      (0): Linear(in_features=1021, out_features=50, bias=True)
      (1): CELU(alpha=1.0)
      (2): Linear(in_features=50, out_features=50, bias=True)
      (3): CELU(alpha=1.0)
    )
  )
  (signature_latent_compressors): ModuleDict()
  (signature_regressors): ModuleDict(
    (outside_panel): FCRegressor(
      (model_list): ModuleList(
        (0): Linear(in_features=7, out_features=50, bias=True)
        (1): CELU(alpha=1.0)
        (2): Linear(in_features=50, out_features=50, bias=True)
        (3): CELU(alpha=1.0)
        (4): Linear(in_features=50, out_features=18684, bias=True)
      )
      (model): Sequential(
        (0): ModuleList(
          (0): Linear(in_features=7, out_features=50, bias=True)
          (1): CELU(alpha=1.0)
          (2): Linear(in_features=50, out_features=50, bias=True)
          (3): CELU(alpha=1.0)
          (4): Linear(in_features=50, out_features=18684, bias=True)
        )
      )
    )
  )
)
===========================
Extractor controller
{'data_key': {'pheno_df_key': 'data_key', 'type': 'categorical', 'order': ['CD14+_Monocytes', 'CD19+_B_Cells', 'CD34+_Cells', 'CD4+_CD25+_Regulatory_T_Cells', 'CD4+_CD45RA+_CD25-_Naive_T_cells', 'CD4+_CD45RO+_Memory_T_Cells', 'CD4+_Helper_T_Cells', 'CD56+_Natural_Killer_Cel
…
